C:\Users\Android\Documents\GitHub\Bat-Detection-and-Counting-using-CNN\image_training_testing (master)
? python image_training.py --dataset databats --model latestbat.model
Using TensorFlow backend.
[INFO] loading images...
[INFO] compiling model...
(64, 64, 3)
_________________________________________________________________
Layer (type)                 Output Shape              Param #
=================================================================
conv2d_1 (Conv2D)            (None, 64, 64, 16)        448
_________________________________________________________________
activation_1 (Activation)    (None, 64, 64, 16)        0
_________________________________________________________________
conv2d_2 (Conv2D)            (None, 64, 64, 16)        2320
_________________________________________________________________
activation_2 (Activation)    (None, 64, 64, 16)        0
_________________________________________________________________
dropout_1 (Dropout)          (None, 64, 64, 16)        0
_________________________________________________________________
conv2d_3 (Conv2D)            (None, 64, 64, 32)        4640
_________________________________________________________________
activation_3 (Activation)    (None, 64, 64, 32)        0
_________________________________________________________________
conv2d_4 (Conv2D)            (None, 64, 64, 32)        9248
_________________________________________________________________
activation_4 (Activation)    (None, 64, 64, 32)        0
_________________________________________________________________
dropout_2 (Dropout)          (None, 64, 64, 32)        0
_________________________________________________________________
flatten_1 (Flatten)          (None, 131072)            0
_________________________________________________________________
dense_1 (Dense)              (None, 32)                4194336
_________________________________________________________________
activation_5 (Activation)    (None, 32)                0
_________________________________________________________________
dropout_3 (Dropout)          (None, 32)                0
_________________________________________________________________
dense_2 (Dense)              (None, 2)                 66
_________________________________________________________________
activation_6 (Activation)    (None, 2)                 0
=================================================================
Total params: 4,211,058
Trainable params: 4,211,058
Non-trainable params: 0
_________________________________________________________________
2019-03-04 00:46:05.005460: I T:\src\github\tensorflow\tensorflow\core\platform\cpu_feature_guard.cc:140] Your CPU supports instructions that this TensorFlow binary was not compiled to use: AVX2
…
